model.ckpt (torch_old, 954825 bytes, 4 tensors)

layer1.weight f4 [300, 784]
000000 8a 68 86 bc 5f 59 0e 3d 8e 2a d4 bc d0 2d 0c bb
       -0.01640727 0.0347532 -0.025899198 -0.002138961
000010 20 50 48 bc 35 ca b0 bc 22 e3 fa 3c e7 59 04 3d
       -0.012226135 -0.021580795 0.030625883 0.0323123
000020 40 20 8d ba e7 58 0e 3d 70 c9 c1 bb 9a 72 a2 3c
       -0.0010767058 0.034752753 -0.005913906 0.019830037
000030 c4 e0 21 3d bb d2 5b 3c 80 e0 8c bb a0 e6 b8 bc
       0.039520994 0.013416941 -0.0042992234 -0.022570908
000040 ce c7 d4 bc 15 d0 a8 bc 95 26 05 bd a4 bb 2b 3c
       -0.02597418 -0.020607034 -0.032507498 0.010481749
000050 5e 04 94 3c 38 60 35 bc b0 78 a5 bc ef 1d 03 3d
       0.018068489 -0.011070304 -0.02019915 0.03201097
000060 ee a2 e3 bc 38 d1 1c bc be 69 11 bd 2c 0b 86 bc
       -0.027787652 -0.009571366 -0.035501234 -0.016362749
000070 a5 16 a0 bc 21 a7 f3 bc c3 16 a5 bc b5 67 81 bc
       -0.019542048 -0.02974278 -0.020152455 -0.015796522
000080 35 be f0 bc 2b fd c2 3c 71 31 0d 3d 60 d1 6b 3d
       -0.029387573 0.02380236 0.03447098 0.057572722
000090 96 f5 d1 3d e1 57 4d 3c 51 e3 8c bc 7b bd 32 3d
       0.1025192 0.012533159 -0.017198237 0.043637734
0000a0 6e a8 88 3c 7d ec af 3c 02 bb 3e 3c 2a 05 33 3d
       0.016681876 0.021475071 0.011641266 0.043706097
0000b0 67 54 9b 3d c9 f6 ad 3d d6 33 0d 3d d0 8b 6e bc
       0.07584458 0.08494336 0.034473263 -0.014559701
0000c0 50 9e 3f 3c a4 57 0b 3d c2 2e b6 3b 29 0d 1f 3d
       0.0116954595 0.034019127 0.005559773 0.03883091
0000d0 08 58 00 bd e4 92 b9 bb 76 45 e8 3c d0 75 cf bc
       -0.031333953 -0.0056632627 0.028353434 -0.025324732
0000e0 3f 2f 0e 3d a0 01 e3 bc 9e f0 89 bc b4 e2 b2 3c
       0.034713026 -0.027710736 -0.016838368 0.021836616
0000f0 3f 52 0d 3d 30 87 48 3d c6 16 d1 3d 6c 48 36 b9
       0.034502264 0.04895705 0.10209422 -0.00017383852
000100 f9 e4 e2 3d fa f3 1c 3d 3f ab 6d 3d 4a 1b d2 3c
       0.11078829 0.03831861 0.05802464 0.025647778
000110 4e 1b 90 3c 28 03 89 3d f8 8a 41 bc 1d 25 3c bd
       0.017591145 0.06690055 -0.011812918 -0.04593383
000120 e4 6c 7c 3d dc 36 1e bd 04 08 09 bd c4 1d 9b bc
       0.061627284 -0.038626537 -0.03345491 -0.018935092
000130 e8 1a 41 bd 7b 99 11 3d 44 0e a8 3d f7 c2 5c 3d
       -0.0471448 0.03554676 0.08205846 0.05389687
000140 8d 6c 97 3c a9 bd d8 3c a0 7a 0b 3c c5 ee 93 bc
       0.018484378 0.026457625 0.008513123 -0.01805819
000150 3c 1f ba bc 00 c8 d9 bc 95 bf ec bc 26 f8 67 bd
       -0.022719972 -0.026584625 -0.028899947 -0.056633137
000160 9f 74 90 bb a0 d6 50 3c 84 c3 dc 3c 29 12 e5 3c
       -0.0044084336 0.012746483 0.026948698 0.027962761
000170 e2 72 bf 3d 2d 7b c1 3b 78 5b 2b bd 2b fb cd 3c
       0.09348084 0.0059045763 -0.04183528 0.02514418
000180 25 92 ae 3d ce 5f 44 3d 42 c7 20 bd f2 3b 27 bd
       0.085239686 0.04794293 -0.039252527 -0.040828653
000190 fa 4a 4b bd a9 b9 03 bd 1a 31 62 3b 33 2c 83 bc
       -0.04963205 -0.03215948 0.003451413 -0.016012287
0001a0 ff 1c 0d bd 4b db 17 b9 e5 f0 45 3d b4 1a 1e 3c
       -0.03445148 -0.00014482175 0.048325438 0.009649921
0001b0 69 e3 93 bd 8a 53 d6 bb 4b b9 0d bd 08 8c bb 3c
       -0.072211094 -0.0065407204 -0.034600537 0.02289392
0001c0 28 cf bf bc 40 7b e5 ba 1f 3f 93 3c 43 db 59 bd
       -0.02341421 -0.0017508045 0.017974434 -0.05318762
0001d0 9b a0 d6 3c ae 04 30 3c 3e e3 b0 3d fd 7d 05 3d
       0.02619963 0.010743303 0.08637093 0.032590855
0001e0 02 d2 39 3d b6 c2 7c 3d 6a e3 df 3c fe 8a ea 3c
       0.045366295 0.06170913 0.02733012 0.02863073
0001f0 6f 10 79 3c 9b 25 24 bd 98 4f 6d bd ac e0 71 bd
       0.015201672 -0.040074926 -0.057937235 -0.059052154
000200 c7 6f 81 bd e6 3e e9 bc 33 19 68 3c cb f9 4b 3b
       -0.06320148 -0.028472375 0.014166164 0.003112423
000210 ef 92 ff bc cc f3 cf 3a 47 ac 4a bd 04 d1 20 bd
       -0.031197993 0.0015865504 -0.049480703 -0.039261833
000220 54 91 98 bd f7 74 9a bd fd 07 7d bc 00 3a ee ba
       -0.07449594 -0.075418405 -0.015443799 -0.0018175244
000230 fc fc 07 3c 51 9a 07 3d d1 fb 1e 3d ea d7 78 bd
       0.008300062 0.033106152 0.03881437 -0.060752787
000240 42 75 af bc 2a 81 88 bc f6 e3 81 bc 67 ee f5 bc
       -0.021418218 -0.016663153 -0.01585577 -0.030020906
000250 3b 7c b6 3c 1c 37 06 bb 30 bb cf bc 90 dc bb bb
       0.022276035 -0.0020479625 -0.025357813 -0.00573308
000260 89 96 75 bc 60 8f 1e bd 4e d5 a9 3c b6 56 48 bc
       -0.014989504 -0.03871095 0.020731594 -0.012227705
000270 4e bd 59 bd 8d 53 52 bd 62 81 cc 3a 16 6a 52 bd
       -0.05315905 -0.05134921 0.0015602524 -0.051370703
000280 89 a0 c2 bc 4c 95 23 bd 53 d6 ca bb af b4 08 bd
       -0.02375819 -0.039937302 -0.0061901 -0.03337544
000290 16 c3 2e bd 74 9e 46 bd 64 02 aa 3c 2c 8a 8d 3c
       -0.042666517 -0.048490956 0.020753093 0.0172778
0002a0 b8 35 2f 3c 82 c0 e6 3c 5c da 15 3d c6 ce d8 3c
       0.01069396 0.028167967 0.036585197 0.026465785
0002b0 57 3e 47 3d 8a 80 5a 3c 28 37 82 3d be 4c 93 3c
       0.048643436 0.01333631 0.063581765 0.01798093
0002c0 35 fc d7 bc 1a fe a9 3b 5b 98 fa 3c fc 3f eb 3c
       -0.026365379 0.005187762 0.030590227 0.028717034
0002d0 bd 39 26 3d f7 fd 28 bc b9 bb 0e bd 01 e7 74 bd
       0.040582407 -0.010314456 -0.034846995 -0.059790615
0002e0 41 cf 28 bd c4 50 09 bd 4b fa 95 bd b3 0c 17 bd
       -0.041213278 -0.03352429 -0.0732313 -0.036877345
0002f0 91 92 85 bc 92 9d 3f bd 9a 22 3c bd 7b 65 9c bd
       -0.01630524 -0.04678113 -0.045931436 -0.07636543
000300 3e 10 39 bd 9d 9a 38 bd 28 cf 1f 3c 52 2b 13 bc
       -0.045181505 -0.045069326 0.00975398 -0.008982496
000310 92 3d a5 3c 00 b8 91 3d 48 f8 6f 3c ee 86 b5 bb
       0.02017096 0.07115173 0.014646597 -0.0055397665
000320 53 0d 05 3d 00 d3 22 3a 1d 67 a2 bc 5a 93 19 3d
       0.03248341 0.0006211251 -0.019824559 0.03749404
000330 2b ed e2 bb 24 23 8d bc af 7e 85 bc a8 4d 41 3c
       -0.0069252453 -0.01722867 -0.016295759 0.0117983
000340 ee f8 f0 bc c6 6f 69 3c e4 4c fc ba f9 46 34 bd
       -0.029415574 0.01424784 -0.0019248989 -0.044012997
000350 78 dc c6 bc 77 48 68 bd 84 5c 66 bd ed 9c 8d bd
       -0.02427505 -0.056709733 -0.056240574 -0.06914697
000360 83 8a 8f bd 04 ea 38 bd 20 0a 9b bd e4 69 f3 bd
       -0.07008841 -0.04514505 -0.075702906 -0.118854314
000370 37 1c f2 bc 73 d7 a0 bc a2 a2 12 bd 9f 2d 91 bd
       -0.02955447 -0.019633984 -0.03579963 -0.0708878
000380 a2 e7 10 bc 26 9c 3e 3d bc e3 bd 3c 75 a4 46 bd
       -0.008844288 0.046535634 0.023179881 -0.048496682
000390 57 3f 58 bb 00 af 96 bc 78 8f 8a bc d5 ac 47 bc
       -0.0032996738 -0.018393993 -0.016914114 -0.012187202
0003a0 14 c5 9c 3c 33 1a 9e 3b 6a 0d cb 3c 7f ac a4 3c
       0.019136943 0.0048249005 0.02478667 0.020101784
0003b0 2b 8e 8b bc 1c 7f c9 bc 2c b0 d8 bb 1c b2 9a 3c
       -0.017035564 -0.024596743 -0.006612798 0.018883757
0003c0 e4 4a 2f bc 6f ab 58 bd 09 0f 2f bd 68 14 a6 bc
       -0.010699008 -0.052897867 -0.042738948 -0.020273402
0003d0 ba 0a 4f bd 23 5d 8d bd 4b da 93 bd 4e 8c 80 bd
       -0.05054734 -0.0690253 -0.072193705 -0.06276761
0003e0 3a a6 49 bd 15 15 32 bd 30 4a 3b bd 06 75 3a 3c
       -0.04923079 -0.043477137 -0.045725048 0.01138044
0003f0 30 73 48 3b 74 54 8e 3c 4f 1c 88 bd 50 44 a4 bc
       0.0030586235 0.017374255 -0.066460244 -0.020052105

layer1.bias f4 [300]
000000 70 86 28 bd a5 85 f7 3b c3 93 66 3b bd 6f 1b bd
       -0.041143835 0.0075537735 0.0035183288 -0.03794836
000010 e9 db 11 bd 69 5a 16 bd 85 c3 f7 ba 9d f5 82 3b
       -0.035610113 -0.036707316 -0.0018902874 0.0039965645
000020 d9 d6 48 3c 8b da 57 3c 0f 0b 18 bd bc b3 26 bd
       0.012258255 0.013174663 -0.03711992 -0.04069875
000030 e3 21 b0 bc aa 4e 29 bd fa 7b 1a bd 81 c6 27 bd
       -0.021500533 -0.041334786 -0.03771589 -0.040960792
000040 c3 16 9c 3b 51 16 1c bd 51 f4 50 bc 10 dc bc 3c
       0.0047634556 -0.03810722 -0.012753562 0.023054153
000050 99 45 9f bc b1 70 55 bd c7 d4 2d bd b7 fd 26 bc
       -0.019442366 -0.052109424 -0.04243925 -0.010192326
000060 3f 2f 5f 3c b5 2b 1e bd 74 c4 20 bd 49 63 7b bd
       0.013622104 -0.0386159 -0.039249852 -0.061373983
000070 ed 59 76 bc 2c 89 c0 bc cd 4a 16 3c 3e d7 50 3b
       -0.015036088 -0.023502909 0.009173107 0.0031866576
000080 b2 87 53 bd cf bc cf 3c 76 72 22 bc 4d 45 35 bc
       -0.05164308 0.025358586 -0.009914985 -0.011063886
000090 76 2c 67 3b 57 0f 39 bb 5f ec f9 bc 95 44 11 bd
       0.0035274304 -0.0028237903 -0.030508218 -0.035465796
0000a0 66 9f f9 ba bb 41 d1 3c 3c db ec bc 8a ac 22 bd
       -0.0019044697 0.025544038 -0.028913133 -0.039715327
0000b0 45 03 62 ba a8 98 14 bd 17 e8 27 bc e7 8a b0 bb
       -0.0008621703 -0.036278397 -0.010248206 -0.005387652
0000c0 f5 c3 ab 3c 35 86 e1 3c 9a fd d5 bb b2 97 1c bd
       0.020967463 0.027529815 -0.006530476 -0.038230605
0000d0 0a bf d9 bc 60 75 3f bc 8c 4f f8 3c 98 32 f0 bc
       -0.026580352 -0.011685699 0.030311368 -0.029321
0000e0 f7 98 5a 3c b6 2b b2 3b 4c 6f bf bc 83 e9 f4 bc
       0.013342134 0.0054373397 -0.0233685 -0.029896503
0000f0 e1 8d 11 bd 9d 65 63 bc ba 67 63 bc bf ac d8 bc
       -0.035535697 -0.013879207 -0.013879711 -0.02644956
000100 4c d0 be 3b cf bb 04 bd b2 bc 8d 3c d9 5e ff bc
       0.0058231708 -0.03240567 0.017301891 -0.031173157
000110 c5 cf 7d 3c 62 2d 4a bb 81 e6 42 bd 6f 1e c6 3c
       0.015491431 -0.0030849804 -0.047583107 0.024184434
000120 cb 3a 16 bc 87 56 44 bb 1d ee 0a 3c ab 28 1a bd
       -0.009169291 -0.00299588 0.008479622 -0.03763644
000130 0a 2b 1a 3b 05 ee 91 3b 82 e2 16 bc f1 11 82 3c
       0.0023524188 0.004453423 -0.009209277 0.015877696
000140 d0 6f 6c bd 65 bc 86 3c f1 c3 10 bd ab cb 2c bd
       -0.05772382 0.016447255 -0.035343114 -0.04218642
000150 1f f4 af bb d4 25 a3 3c ae 61 e6 bc b6 12 9a 3c
       -0.0053696777 0.019915499 -0.02812275 0.01880775
000160 8e 30 27 bd 80 69 cc bc 6c b9 d9 3a 24 ae 8c bc
       -0.04081779 -0.02495265 0.0016611046 -0.01717288
000170 fe 7d cf 3c ee 6a 60 bc 0c 34 18 bc b3 8e 59 3c
       0.025328632 -0.013697369 -0.009289753 0.013278651
000180 7c ba 27 bd 1b 0e 9c 3a c4 64 6f 3c c3 0f f5 bc
       -0.04094933 0.0011906059 0.014611427 -0.029914742
000190 64 fc 12 bd 9f c6 ef bc 94 11 14 bc 06 9a 55 bc
       -0.03588523 -0.029269515 -0.009037394 -0.01303721
0001a0 2f dd 2e bd ca 3a cd bc 03 69 23 bd 7c e6 94 bc
       -0.042691406 -0.025052447 -0.03989507 -0.01817631
0001b0 3d 10 2b bd 1f 68 1a bd 18 89 28 bd ff df d7 3c
       -0.041763533 -0.037696954 -0.041146368 0.026351927
0001c0 40 17 0e bd 4a f6 ba bb ee 08 fa bb 62 f4 a5 bc
       -0.03469014 -0.0057056295 -0.007630459 -0.020258132
0001d0 5f 99 8c 3c 00 bf bb bc 99 0d 7a bc 9c bc 81 bd
       0.017162977 -0.022918224 -0.015262031 -0.063348025
0001e0 30 07 83 bc c8 27 b2 bc 24 43 f9 bc 2a cb 62 3c
       -0.015994638 -0.021747485 -0.030427523 0.013842383
0001f0 10 72 bf 3b 71 90 ac bc f9 d9 e0 bb e6 79 1a bd
       0.0058424547 -0.021064969 -0.006861922 -0.037713908
000200 24 e7 cc bc d3 0c dc 3c 96 3e f3 3b 11 1f ca bb
       -0.02501256 0.026861584 0.0074232323 -0.006168254
000210 4c fd 27 bc 35 be e5 bc b9 b5 12 bd df c8 fd bc
       -0.010253262 -0.0280448 -0.035817835 -0.030979572
000220 4b d6 20 bb bc 2a 12 bd ef 0e 84 bc 9e ec d7 bc
       -0.002454179 -0.035685286 -0.016120402 -0.026357945
000230 42 28 88 bc bd 55 87 3c bb 1e e1 bb 68 91 70 3c
       -0.016620759 0.016520375 -0.0068701184 0.014683105
000240 33 c5 1b bc 3b 0c 8d 3b b2 09 f1 bc 2b 38 93 bc
       -0.009507465 0.0043044365 -0.029423568 -0.017971119
000250 7b e2 47 bb 68 94 c7 bc 90 fb 7f bd d4 7f ef bc
       -0.0030499983 -0.024362758 -0.062495768 -0.029235758
000260 3d 31 02 3b a3 af 43 bd 3d 0b b7 3b 20 d5 30 3c
       0.0019865774 -0.047774922 0.0055860565 0.010793
000270 e1 cd a8 3c 26 db e3 bc f2 11 6e bc 0f 44 a3 3c
       0.020605983 -0.027814459 -0.014530646 0.019929914
000280 e2 2c e2 3a 3f 6d 1c 3c ae 55 1c 3c ea d6 32 bd
       0.0017255808 0.009547531 0.009541912 -0.04366199
000290 ed 71 c7 3c 67 cc e2 bc 56 10 a6 3c f4 f1 64 bd
       0.024346316 -0.027685357 0.020271461 -0.055894807
0002a0 91 6c 39 bc 7e cb 54 bd b6 c4 2a bb 3e 32 bf ba
       -0.011317388 -0.051951878 -0.002605719 -0.0014587117
0002b0 19 e2 8a 3c 07 27 28 bd 67 0a 04 bc 25 51 f5 bc
       0.016953515 -0.041052844 -0.008059121 -0.02994592
0002c0 d5 95 2b bd 41 1e ca 3b cf 08 f3 bc e7 e7 f7 bc
       -0.041890938 0.0061681573 -0.029667286 -0.030261947
0002d0 26 20 ef bc e6 e1 4c bc 21 5f da bc 73 d7 8e 3c
       -0.029190134 -0.01250503 -0.02665669 0.017436719
0002e0 d0 79 04 bc a9 c0 d1 bc cb a8 c2 bc 73 85 fa bc
       -0.008085683 -0.025604563 -0.023762127 -0.030581212
0002f0 33 0c 1b bd 4f e8 af ba 1d 38 99 bc 29 55 4c bb
       -0.03785343 -0.0013420674 -0.018703515 -0.003117869
000300 34 27 30 bd 28 e9 76 bd bf d1 22 bd 5b b1 e4 bc
       -0.043006137 -0.06028095 -0.03975081 -0.0279166
000310 11 4f 19 bd 73 73 95 bc 36 61 71 bc fd 0f 2f bc
       -0.03742892 -0.018243527 -0.01473265 -0.010684964
000320 47 f5 b3 bc f9 09 11 bd ab 49 02 bd 97 57 91 bd
       -0.021967543 -0.0354099 -0.031808536 -0.070967846
000330 90 6f 39 bd 85 e9 09 bd 29 f8 65 bb 62 0a ea bc
       -0.04527241 -0.033669967 -0.0035090542 -0.028569404
000340 32 06 62 bd d3 ce 92 bc a6 14 9f bc 7e 01 b3 bc
       -0.05518169 -0.017920887 -0.019419026 -0.021851297
000350 6e b8 c0 bc 6e 25 38 bd 6e 51 34 3c 49 9a cb bc
       -0.023525443 -0.04495757 0.0110057425 -0.024853842
000360 cd 5e a7 3b 56 d0 4c 3d fa af 54 3c ee e8 ac 3c
       0.0051077367 0.050003372 0.012981409 0.021107163
000370 39 20 b3 3c 52 10 17 bd 91 02 09 bd d9 86 8b 3b
       0.02186595 -0.0368808 -0.033449713 0.0042580185
000380 d5 75 e9 bc e0 c1 97 bc 91 bc c2 bc 5b 8b f9 bc
       -0.02849857 -0.018525064 -0.023771556 -0.030461958
000390 81 36 1b bc 52 ed d6 3b 64 dd 8f bc 72 a3 eb bc
       -0.009473444 0.0065590525 -0.017561622 -0.02876446
0003a0 6f 54 25 bd 9f 40 18 bd 29 f0 0d bc 06 08 76 3c
       -0.040363725 -0.037171002 -0.008663216 0.015016561
0003b0 17 f9 72 3c 69 ad 4b bc f4 06 3d bc 76 37 73 bd
       0.014829895 -0.012431481 -0.011537302 -0.059379064
0003c0 f7 16 32 bd 17 65 6b bd 5b 2a f5 bb e0 37 27 bd
       -0.043478932 -0.057469454 -0.007481856 -0.04082477
0003d0 d3 c8 a2 bc c7 a0 3a bd e6 93 ab 3c da 96 3c bd
       -0.019871151 -0.045563485 0.020944547 -0.0460423
0003e0 20 be a8 bc 95 26 c9 bc 32 77 d8 bb d3 1c 26 3c
       -0.020598471 -0.02455453 -0.006606006 0.010138708
0003f0 18 2f 23 bd 03 6e bb 3c 1c 97 2b bd 61 c5 2c 3c
       -0.039839834 0.022879606 -0.041892156 0.010545106

layer2.weight f4 [10, 300]
000000 32 c6 34 3d 07 31 11 3d f5 c0 2f 3c be 93 96 3c
       0.044134326 0.035447147 0.010727157 0.018380996
000010 58 f3 17 3d 69 57 be 3b 07 ca 6d bb a2 48 89 3b
       0.037097305 0.00580876 -0.0036283748 0.0041895667
000020 e8 df 02 3d 2c 3e 65 bc 9f bc 81 bc d1 ac ac bc
       0.031951815 -0.013991874 -0.015837012 -0.021078499
000030 6e 9c 46 3d 86 5f 95 3c 2f fd 12 3d 02 ff 6e bd
       0.048489027 0.018234026 0.035885986 -0.058348663
000040 d5 f7 a5 bc 33 53 83 bc e8 f8 b0 bc 92 fd 33 3d
       -0.020259777 -0.016030883 -0.021603063 0.043942995
000050 f6 d0 37 bd ce 54 48 3d ce 65 f7 3b 9f 84 22 3d
       -0.044877015 0.048909 0.007549978 0.03967726
000060 7a d9 b1 bc 5a 42 03 3d c7 9e 01 bb fe 60 5c 3c
       -0.021710146 0.0320457 -0.0019778477 0.013450859
000070 ce f2 0a bd 80 f6 ed 3c 83 47 57 bd be 74 3d bb
       -0.033922963 0.029048204 -0.052558433 -0.0028908695
000080 24 0b e7 bc db 99 c4 3c 0c 2a 25 bd 9a bb 6a bc
       -0.028203554 0.023999145 -0.040323302 -0.014326954
000090 02 1a 3e bb 89 1f 96 ba 96 b3 d2 3c 62 c9 f3 3b
       -0.00290072 -0.001145349 0.025720399 0.007439778
0000a0 5b 3b c7 3c 71 fc dc 3c a5 78 2e 3d 50 87 cf bc
       0.024320295 0.026975842 0.042595524 -0.025333077
0000b0 b1 f8 7f bc c2 46 2d 3d 83 f2 8f 3c 36 77 54 bd
       -0.0156232575 0.042303808 0.017571693 -0.0518715
0000c0 96 27 6c 3b a5 e2 86 bd 80 b4 f1 bb 4b da d6 bb
       0.0036034337 -0.06586198 -0.0073762536 -0.0065567843
0000d0 be c0 84 3c b4 31 d1 bc b9 8e e5 ba 86 30 78 bc
       0.016205188 -0.025536396 -0.0017513848 -0.015148288
0000e0 5d e2 00 3d 1e 73 a8 3c eb bf 14 bc 97 73 a5 ba
       0.031465877 0.020562705 -0.00907896 -0.001262295
0000f0 dd 88 35 bb ce fb 91 3c d3 fa a6 3a ea 7f 0f 3d
       -0.0027699985 0.017820265 0.0012739546 0.035034098
000100 92 5b 5a bc 8b df 44 3d a2 88 f6 3c fd 80 68 3c
       -0.013327496 0.04806475 0.030094448 0.014190909
000110 6f ea b7 bc 6b a8 a3 3c f8 94 07 ba 39 49 85 bc
       -0.022450654 0.019977769 -0.00051720394 -0.016270267
000120 86 72 05 3d 69 27 ba bc 56 cd 77 3d 0f 8b 15 3d
       0.03257992 -0.02272387 0.060498558 0.03650957
000130 9c 14 38 3d c4 e5 ef 3b 5b af 58 3c ec 13 25 bd
       0.04494153 0.0073210914 0.013225402 -0.040302202
000140 54 ca 65 3d 80 09 4d 3b 56 30 43 3c 03 5e 02 bd
       0.05610116 0.003128618 0.01191338 -0.031827938
000150 e9 ed 5b bb f6 0e 66 3a 9b d5 00 bd 04 e3 6f bd
       -0.0033558554 0.0008776033 -0.03145371 -0.05856611
000160 68 09 0b bd ae 02 f1 3a 08 d1 ba 3c 7b b1 2d 3d
       -0.033944517 0.001838764 0.022804752 0.042405587
000170 ce eb 51 bd 62 60 68 bd 8e 23 cc 3b 31 bf 49 3d
       -0.05125027 -0.056732543 0.0062298244 0.0492546
000180 0a 66 2e bc 7f 89 82 3b 29 b3 f5 3c 0f c5 2c bd
       -0.010644445 0.003983676 0.029992657 -0.042180117
000190 c5 44 28 bd ae 36 08 bd a4 cf 32 bc 77 bd e9 3c
       -0.04108121 -0.03325527 -0.010913763 0.028532727
0001a0 ee fd 50 3d 13 37 05 bc a8 cd 20 bd eb 37 d7 bc
       0.051023416 -0.0081308065 -0.03925863 -0.026271781
0001b0 df a3 08 bd 1b 87 c7 3b 32 93 1b bd ad 78 9d 3c
       -0.033359405 0.006089104 -0.037982173 0.019222582
0001c0 e6 11 fe 3c b3 13 27 3d f3 fd 2a 3c 42 ff 3e bc
       0.031014394 0.04079027 0.010436523 -0.011657538
0001d0 ee 7c d2 3c da a1 49 bc 36 9c a7 bc 6b f1 20 bc
       0.025694337 -0.012306655 -0.02046023 -0.0098231835
0001e0 05 1e 59 bd b1 30 2c bd 09 21 21 bd 05 d4 13 bd
       -0.053007144 -0.042038623 -0.039338145 -0.03609087
0001f0 9d 5c 9a bc 99 eb 1d 3d 68 12 35 3d 43 13 56 3c
       -0.01884299 0.03855476 0.044207007 0.013066116
000200 44 88 9e bb f1 66 02 bc c4 35 f0 3b 8a c8 45 bc
       -0.0048380215 -0.007959113 0.007330628 -0.012071738
000210 3c d7 35 3c aa e3 62 bc 7a f7 e3 bc ae 98 d5 b9
       0.011098679 -0.013848225 -0.027827967 -0.0004074028
000220 2f 45 3c bd 8c ea 0d 3d 1a 9c d4 bb 24 b9 cf 3b
       -0.045964416 0.03464751 -0.0064883353 0.006339209
000230 d5 68 27 3d 08 2c 0c bc fb 97 1f 3d 3b 38 bb 3b
       0.04087146 -0.00855542 0.0389633 0.0057134903
000240 b5 34 1f 3d 20 d0 24 bb a3 b0 85 3c a8 19 55 bd
       0.038868625 -0.0025148466 0.016319579 -0.05202642
000250 a2 fe 00 bd 91 ff e4 3b 4b db 1e bd 31 2f 1d 3d
       -0.031492837 0.0069884737 -0.038783353 0.038375083
000260 90 fe 24 3d 22 ba 13 bd 54 09 5b 3d 91 b9 68 bd
       0.040281832 -0.036066182 0.053475693 -0.056817595
000270 cd 69 12 bd cf ef 78 3c 7d 63 74 3d ca 74 1e bd
       -0.03574543 0.015193894 0.059665192 -0.038685597
000280 65 a4 1d bd 6e 4f f7 3c 89 f1 3b 3c 1c 69 08 3d
       -0.038486857 0.030189242 0.011471161 0.033303365
000290 b6 5c 8f 3d 54 e1 49 bd 48 3b 5c bc 93 25 82 bc
       0.07000105 -0.049287155 -0.013441868 -0.015887057
0002a0 7f 58 d8 3b 9d 23 91 3d fb ea d7 bc 23 39 18 3d
       0.0066023464 0.07086871 -0.026357165 0.037163865
0002b0 3f e3 5e bc f9 0d 1f 3d 12 ca 05 3b 15 34 88 3c
       -0.013603984 0.038831685 0.0020414633 0.016626397
0002c0 03 90 dd bc 6f 1d eb 3a 35 0c 47 bd c2 dd 18 3d
       -0.02704621 0.0017937849 -0.048595626 0.03732086
0002d0 da 2b 08 3d c7 97 4d bc fc 50 e1 3c 30 7c 59 bc
       0.033244945 -0.012548394 0.027504437 -0.0132742375
0002e0 83 73 bf bc 49 30 a3 bb 04 0b 4c bd 80 d3 e5 3b
       -0.02337051 -0.0049801213 -0.049815193 0.007013738
0002f0 66 c5 12 bd f4 45 2c bd 35 dd a4 3c 0c 50 25 3d
       -0.035832785 -0.0420589 0.020125011 0.04035954
000300 f4 8a 0d 3c 63 c7 b9 3c 27 b5 b9 bc 41 9a 25 3d
       0.008639086 0.022678083 -0.022669388 0.04043031
000310 4d d2 70 3b 6c 06 c1 bc e1 09 21 3c 06 21 7d bb
       0.0036746443 -0.023562633 0.0098290155 -0.003862442
000320 56 e9 d2 3c 8a 58 b7 bb 4f 7e 8f bc 5f b2 03 bd
       0.025746029 -0.0055952715 -0.017516283 -0.03215253
000330 73 99 8a bd 9f 82 7f 3c f9 d9 3a 3d 00 89 c5 3c
       -0.06767549 0.015595107 0.04561803 0.024113178
000340 86 02 d6 3c a5 1b 49 3d 72 bc 11 bd 17 88 86 bc
       0.02612425 0.04909863 -0.035580106 -0.016422315
000350 2f ad 00 bc 87 5b a1 bb c0 08 87 bc f6 fc 45 bb
       -0.00785379 -0.004924241 -0.016483665 -0.003021059
000360 c7 b4 5d 3d 24 2e 03 bd fa 5c 3e bc 39 e4 09 bd
       0.05412748 -0.032026425 -0.011618847 -0.033664916
000370 37 00 b3 3c 18 ec 15 bd f3 7a 51 bd d6 1c 10 bc
       0.021850688 -0.03660211 -0.051142644 -0.0087959375
000380 39 58 c5 3c 93 a2 66 bd 21 6a e2 bb b0 8a 1c bd
       0.02408992 -0.056307387 -0.006909624 -0.0382182
000390 0f e4 01 3d dc 68 4b 3d 0c 85 69 3c aa a7 34 bd
       0.031711634 0.04966055 0.014252912 -0.04410521
0003a0 03 ea 8c bc 59 06 be 3c 5f ed 85 bb 21 a3 1a 3d
       -0.01720143 0.023196386 -0.0040871347 0.037753228
0003b0 bb e7 0d 3d 03 3f 9e 3c 96 57 19 3d 34 24 2f bc
       0.034644824 0.019317156 0.037437044 -0.010689784
0003c0 19 00 14 bc d9 08 37 3c 6c 65 7d bc 82 21 81 3c
       -0.009033226 0.011171543 -0.015466075 0.015763048
0003d0 53 0c 5f bd ee e2 7e bd c3 ef 0c 3d 41 d8 7a 3c
       -0.054455113 -0.062228136 0.034408342 0.015310348
0003e0 dd 63 69 bc 52 9b 38 bd 9c c8 5b 3d 12 23 d2 3b
       -0.014245001 -0.04507 0.053658113 0.006412872
0003f0 cf 72 a9 3a 97 7c 04 3d 57 d9 90 bb 87 9a 1c bd
       0.0012927892 0.03234538 -0.00442044 -0.038233306

layer2.bias f4 [10]
000000 66 91 a9 3d cb ac 8c bd 16 26 cd bc 8b 03 16 bd
       0.08279686 -0.06868895 -0.025042575 -0.036624473
000010 50 5c ce bd 2a 52 87 bd 2e 95 37 3c 3e a4 a6 bd
       -0.10076201 -0.066074684 0.011205001 -0.081367955
000020 62 c4 28 3e fb 47 0a 3e
       0.16481164 0.13504021
